results/run1/model_decoder.pth (torch, 328474 bytes, 21 tensors)

fc.weight f4 [648, 12]
000000 cf 5b 32 be 94 f3 22 be 63 60 5d be 69 2a 5a bd
       -0.17417835 -0.1591323 -0.216188 -0.0532631
000010 46 f3 37 3e ac ce bb 3d b1 e8 8c 3e 17 1f b4 bd
       0.17963895 0.09170279 0.2752128 -0.087949924
000020 dc cf ee bd 4c 4d ae 3d 87 8d 9d 3e 43 69 b9 3d
       -0.1166074 0.08510837 0.3077204 0.0905328
000030 da 0a 56 be 77 b2 21 3d 0e a4 3f be 36 43 66 be
       -0.20902577 0.039476838 -0.18714926 -0.22486576
000040 88 b3 1b be 4c 0c 26 3d 5c 6c 9f bc 3e c7 e6 3d
       -0.15205204 0.04053907 -0.01946085 0.11268471
000050 34 79 67 3e c3 08 2f 3e 50 75 9f bd 9d 13 1f be
       0.22604829 0.17093186 -0.077860475 -0.15534826
000060 e8 7d ad bc a7 86 f5 be 20 80 a5 be a6 e2 2d 3d
       -0.0211782 -0.47954294 -0.32324314 0.042452477
000070 12 57 37 be 61 79 96 3e 7e 2f 13 3e 71 7e 14 3f
       -0.17904308 0.2938948 0.14373586 0.58005434
000080 98 a5 3c 3f 37 7b 99 be ed 92 98 bd dd 24 01 3e
       0.73690176 -0.29976818 -0.07449899 0.12611718
000090 4a f8 5f bd 5e d6 95 3e a2 7a ab 3e cf 7c 3b bc
       -0.054680146 0.29265112 0.33492 -0.011443331
0000a0 67 be b2 3c d5 17 60 be 7a de 3c bd 80 96 d3 3d
       0.021819307 -0.21884091 -0.046110608 0.1033144
0000b0 69 30 d9 bd 6f 93 25 3d 1b 4b c8 3d 31 f7 44 3d
       -0.10604937 0.040423807 0.0977995 0.048087303
0000c0 e6 d3 8b be e9 16 88 bd d6 63 12 be 06 b0 4f bd
       -0.27310103 -0.06644995 -0.14295897 -0.05070498
0000d0 03 56 de 3e 86 60 d1 3d a9 06 06 be c9 e0 ca 3e
       0.43424997 0.102234885 -0.13088478 0.39624622
0000e0 61 6a 10 3f f2 40 c0 be 3e f5 d9 bc 52 6c c7 3d
       0.5641232 -0.3754955 -0.026606198 0.09737457
0000f0 0b 87 1b 3d d8 1f 67 bd d8 77 71 bf dd 76 b1 3d
       0.037970584 -0.056426853 -0.9432349 0.086652495
000100 bd 87 b7 3e 94 a3 29 3f 0b 90 00 bd 5b da 99 3e
       0.35845748 0.66265225 -0.03138737 0.30049405
000110 77 39 5e 3f b2 4e 3e be e5 a5 93 bd 87 5a b5 3d
       0.86806434 -0.18584707 -0.07209376 0.08855157
000120 07 cd e5 3e dd 79 04 3f 58 47 10 3f 76 24 0c be
       0.44882986 0.5174845 0.5635886 -0.13685784
000130 22 83 88 3e 5d 4a 60 be 86 24 c0 be 0d 35 3f be
       0.26662546 -0.21903367 -0.37527865 -0.18672581
000140 de f7 26 bf bd ab 04 3f 9f 37 96 be 76 d9 9b 3e
       -0.65221965 0.5182455 -0.2933931 0.30439347
000150 e2 91 25 3f 5b d3 d3 3e 5b 1d 75 3f 44 bf e1 3b
       0.64675725 0.4137219 0.9574792 0.0068892557
000160 1a 0c a6 3e 87 e5 a3 be 63 2f 13 bf ae 8e e6 be
       0.32431108 -0.32011053 -0.5749418 -0.4503073
000170 0c fb da be 1a 90 ef 3e 0d 71 ea be c5 8a b7 3e
       -0.4276966 0.46789628 -0.45789376 0.3584806
000180 d0 b3 88 bd 36 93 05 be ce 98 a4 bc 44 29 08 be
       -0.066749215 -0.13044438 -0.020092394 -0.13296992
000190 84 cd 8a 3e 7c 0f 94 3e 62 1e c1 bd 95 07 67 be
       0.2710992 0.28918064 -0.09429623 -0.22561486
0001a0 05 28 b8 3e a5 6d 1f be fb 36 8d 3e 55 35 0d bd
       0.35968032 -0.1556917 0.2758101 -0.03447469
0001b0 74 a1 d5 3d b9 f4 c9 bd 05 2b 5b bd 13 66 b8 bc
       0.10431185 -0.0986113 -0.053507823 -0.02250961
0001c0 dc 93 92 3e c2 f1 67 be eb f5 11 be ea 57 89 3e
       0.28628433 -0.22650817 -0.14253967 0.26824886
0001d0 43 10 8f 3e a6 1f 22 be cd 46 9e 3e f1 63 d5 bd
       0.27942094 -0.15832385 0.30913392 -0.10419453
0001e0 ab 31 4c bc 73 8a e3 3b b7 01 29 be d1 e9 76 be
       -0.012463014 0.0069439947 -0.1650456 -0.24112631
0001f0 b7 fc 41 3e bd b0 4a 3d 93 0d 98 3c 6f 10 d1 3d
       0.1894406 0.049484957 0.01856116 0.102082126
000200 40 45 14 3e 09 67 bf be 8e 7b 54 3e 18 63 0a 3e
       0.14479542 -0.37383297 0.20750257 0.13514364
000210 41 3b a1 3e 77 72 0b be 9f 81 bb be 0c 4f 2e 3e
       0.3149052 -0.13617884 -0.3662233 0.17022341
000220 00 78 18 3e 25 cb a2 3e 62 ea 34 3c 2d fc ed bc
       0.14889526 0.31795612 0.011042209 -0.02905091
000230 b9 e4 fa 3e 68 a9 d4 be 30 33 63 be 13 92 c3 3c
       0.49002627 -0.41535497 -0.22187495 0.023873365
000240 b7 48 16 bd 45 bf 94 bd 40 76 28 be 32 f9 db bd
       -0.03669044 -0.07263044 -0.16451359 -0.107408896
000250 67 cf f9 bc 96 8e e7 bd ff 9d d4 bd 68 97 60 3e
       -0.030494405 -0.11306493 -0.10381698 0.21932757
000260 56 e5 e1 bc 7d 28 73 be b1 86 06 3e 5b b4 46 3c
       -0.027575176 -0.23745914 0.13137318 0.012127961
000270 32 13 94 bd e1 b6 bd 3e 55 20 a1 3d d9 9c dd bd
       -0.07230224 0.37053588 0.07867495 -0.10820932
000280 bb df 26 3d 2c cf d9 3d 77 35 df bc db 66 38 bd
       0.04074071 0.10635218 -0.027247174 -0.045019966
000290 1c 95 1f be 8e 64 00 3e 77 ad ab 3c ac 61 17 be
       -0.15584224 0.12538359 0.020956738 -0.14783353
0002a0 81 bf a3 bd cc 60 e9 be 5b 21 c6 be b4 c2 37 be
       -0.07995511 -0.45581663 -0.38697323 -0.17945367
0002b0 83 ef a3 3e c7 65 04 3e 64 50 dd bd 4e 94 bb 3e
       0.3201867 0.1292945 -0.10806349 0.36636585
0002c0 8d 84 af 3e e9 09 9a be 81 15 1a 3e 3f 70 12 be
       0.34280816 -0.30085686 0.15047266 -0.14300631
0002d0 6c b7 01 3e d0 23 d9 be 95 b5 12 bf 9c f8 ae be
       0.12667626 -0.42410135 -0.5730832 -0.3417405
0002e0 a6 61 2a 3e e1 df ba 3d 51 63 34 3e d4 5c f1 3e
       0.16638812 0.09124733 0.17616011 0.47141135
0002f0 37 7d 23 3f 4c fc 10 be 8a fc 3f be 24 10 57 3c
       0.6386294 -0.14158744 -0.1874868 0.013126407
000300 ba f4 33 3e ec 13 75 3d 43 60 c6 3e a6 96 ab 3d
       0.17573825 0.059833452 0.38745317 0.08378343
000310 35 1e 0c 3d 66 83 b1 bd 45 91 e1 bc 3f 32 09 be
       0.034208495 -0.086676404 -0.02753509 -0.13398074
000320 f0 d4 de 3c 1d d0 6c be 32 74 98 be 5a ba c6 3d
       0.027201146 -0.23126264 -0.2977615 0.097035125
000330 3c 09 24 bf cc 8e f7 be 75 25 5e bf 70 af 36 3e
       -0.6407659 -0.48351133 -0.86775905 0.17840362
000340 46 26 03 3d 10 36 ee 3d 85 94 0a 3f bf f2 72 3e
       0.032018922 0.11631405 0.5413287 0.23725413
000350 4a 71 34 3f e8 4c dd be cb 2f 23 3f 19 03 42 bf
       0.70485365 -0.43222737 0.637448 -0.75785977
000360 9c f8 4b be 69 11 88 3e a7 ff 78 bc 13 e7 ab bc
       -0.19919056 0.26575783 -0.015197671 -0.020984208
000370 4b cf 48 3e 02 fb 68 3e 42 65 0b 3d 32 81 a5 3a
       0.19610326 0.22752002 0.034032114 0.0012627004
000380 66 39 e8 3d 64 be 94 be 7e 2c e1 3c a0 42 64 bd
       0.11339073 -0.29051507 0.027487036 -0.0557276
000390 f6 6f 70 3d f0 da 0e be 37 b2 46 bc 63 d8 81 3e
       0.058700524 -0.13950706 -0.012127451 0.25360402
0003a0 4a 44 a4 3e 38 bf 73 3b c5 20 7e be e2 81 58 3d
       0.3208335 0.0037192833 -0.24817188 0.05285824
0003b0 cd de f1 3e a2 ed 33 be a2 dd 1a be 98 1c 61 be
       0.47240296 -0.17571118 -0.15123609 -0.21983564
0003c0 e1 86 65 bc 4f 7c d1 bd 77 b3 25 bf 64 cb 35 be
       -0.014009208 -0.10228788 -0.64726967 -0.17753369
0003d0 03 cf 3e 3d 8a 93 71 3e 06 9f c2 3c 7a 93 21 3d
       0.04658414 0.23591438 0.023757469 0.039447285
0003e0 af 09 45 3e 48 8e 6e bf 37 91 44 be dd 80 1b be
       0.19241975 -0.93185854 -0.1919602 -0.15185876
0003f0 51 fc a2 3d 49 31 d6 bd ff ee 0f bf 59 04 72 3c
       0.07958282 -0.10458619 -0.56224054 0.014771544

fc.bias f4 [648]
000000 03 c5 2a 3e 79 f1 08 be 9f a3 35 be 98 92 05 be
       0.16676717 -0.13373365 -0.17738198 -0.13044202
000010 77 36 26 3e 8b f0 e3 be 20 e4 04 3e da c4 a7 3e
       0.16231714 -0.44519457 0.12977648 0.32767373
000020 7d d9 a2 3d f0 53 42 3e 60 f0 21 be 7a 9b 15 3e
       0.07951639 0.18977332 -0.15814352 0.14610091
000030 0c 37 ab be bf 6f 95 3e e3 76 ab 3d 22 30 b1 be
       -0.33440435 0.29186818 0.08372285 -0.34607035
000040 72 eb aa be ea 70 cb be 0b a0 9e bd 69 f3 cd 3d
       -0.33382756 -0.39734584 -0.077453695 0.100561924
000050 21 f7 04 bf 09 16 f4 be 7c da 8d be 12 c7 65 3e
       -0.5193959 -0.4767306 -0.27705753 0.2243922
000060 bc 05 a8 3d 50 ff 9f bc 7c de 21 be bc 85 70 bd
       0.08204219 -0.019530922 -0.15807527 -0.05872129
000070 f6 98 74 bd 17 1a 87 be c7 c5 bb bc 3a 1e f9 3d
       -0.059716187 -0.26387092 -0.022921456 0.121639684
000080 bb 61 92 3e fc de 7c bd 63 88 c5 3e bf ba ac bc
       0.28590187 -0.061736092 0.38580617 -0.021085141
000090 11 d3 24 3e b0 42 08 be 87 cb 05 bc c7 22 eb bc
       0.1609614 -0.1330669 -0.0081662005 -0.028703107
0000a0 cf e9 54 3e d1 ec 9d 3c 16 d3 6d 3e 8a 87 a5 3d
       0.20792316 0.019277962 0.23225054 0.08082493
0000b0 c9 21 3c 3e 08 64 97 be 55 a0 90 be a8 a1 ee be
       0.18372263 -0.29568505 -0.28247324 -0.4660771
0000c0 42 d4 94 be 23 5b b4 be 81 ef e6 be 4f e0 5b 3e
       -0.2906819 -0.35225782 -0.45104602 0.21472286
0000d0 2e 9a bf be 9e 4c 48 be 4c ae ae be 05 61 92 be
       -0.37422317 -0.19560477 -0.34117353 -0.28589645
0000e0 c2 58 98 be 61 e9 f7 3d c5 a9 fb bd 92 e5 8b 3c
       -0.29755217 0.1210506 -0.1228824 0.017077241
0000f0 1b 2a 40 3c 1f 49 a7 3d c2 3d a2 be ce e2 5f be
       0.011728789 0.081682436 -0.31687742 -0.21863863
000100 ba 53 fc 3d 10 44 50 3b d5 c3 aa 3d 8d 0a c2 be
       0.12320657 0.003177885 0.08338133 -0.37898675
000110 16 2c 2a bf 27 70 f3 3c 81 cf 9f be 87 70 06 be
       -0.6647352 0.029716564 -0.31213 -0.13128863
000120 de 68 d4 bd ef c3 54 bc c4 57 83 3d c4 89 60 3d
       -0.10371564 -0.012986167 0.06413224 0.054818884
000130 a3 7b c3 be 30 6a 42 3e 1a 96 18 be bb 45 9d bb
       -0.38180265 0.1898582 -0.14901009 -0.0047995723
000140 12 3d c9 3c 60 d7 07 3e 9b 9d 52 be 06 e9 39 3e
       0.024565253 0.13265753 -0.20567934 0.18155298
000150 98 ba 29 bd 42 a2 10 3e b4 05 26 bf ba d2 4e 3e
       -0.041437715 0.14124396 -0.6485245 0.20197573
000160 f7 23 88 3e 0e 16 90 be 06 62 84 3e 28 4a 6c be
       0.2658994 -0.28141826 0.25856036 -0.23075163
000170 a0 9a 96 bd 69 a6 8f 3d 3b 0c 17 3e 5c d1 8f 3d
       -0.07353711 0.07014162 0.1475076 0.07022354
000180 e4 f6 f5 3e 4e 69 b1 3e d1 e2 a7 be 91 ca 0b 3e
       0.48039925 0.34650654 -0.32790235 0.13651492
000190 b7 80 28 be 4f 9e 53 3d 18 3c 12 be 49 4e 84 3e
       -0.16455351 0.051664647 -0.14280736 0.25840977
0001a0 f6 91 b2 3d 40 0c 22 3e 71 d9 90 3e 50 b1 e0 be
       0.08719246 0.15824986 0.28290895 -0.4388528
0001b0 0a 8d 86 be b6 29 81 be 5f 77 cc 3d ae fd 28 3e
       -0.2627948 -0.25227135 0.09983706 0.16503021
0001c0 7f ff ef bd 9c fa 1c be af dc 0f bd 43 a2 ce 3d
       -0.11718654 -0.15329975 -0.03512257 0.10089543
0001d0 37 08 07 3d db 4e e6 3b 88 be a6 3d a2 5a a2 bd
       0.03296682 0.0070284433 0.0814181 -0.07927443
0001e0 50 42 de 3e 9a 41 60 3e 6d 52 98 3e a1 a0 0e 3e
       0.43409967 0.21900025 0.29750386 0.13928463
0001f0 90 07 13 be f5 3a 8b be d2 c9 5f be ab 24 e7 be
       -0.14358354 -0.27193418 -0.21854332 -0.45145163
000200 ee 31 b5 be c0 b6 84 3e 8e 37 40 bc f4 93 6f be
       -0.35389656 0.25920677 -0.011731995 -0.23396283
000210 6d d7 67 be 3b 29 e9 bd 72 44 12 be e4 e6 b7 be
       -0.22640772 -0.11384817 -0.14283922 -0.35918343
000220 f2 c5 9c 3d 5d 77 1f 3e 82 45 a0 bc 17 26 ba 3d
       0.076549426 0.15572877 -0.019564394 0.09089296
000230 78 43 a7 be 52 9b b5 bc ff 80 b1 3d 26 6a da 3d
       -0.32668662 -0.022168789 0.08667182 0.106647775
000240 c7 e3 26 be a1 a8 08 be a6 40 62 3e ba ca 5a 3c
       -0.16297828 -0.13345577 0.22094974 0.013353998
000250 93 be 63 3e 24 3e af 3d fc b4 66 3d 95 a6 05 3e
       0.22240667 0.08556774 0.056324944 0.13051827
000260 3f 37 d0 3d 4f 62 d7 bd 6c 64 9c be 81 1e 2d 3e
       0.10166787 -0.10516798 -0.30545366 0.16906168
000270 54 6d b1 be f7 73 59 be 73 67 52 3e 94 2b ab 3d
       -0.34653723 -0.21235643 0.20547275 0.08357921
000280 17 79 f7 bd 6c b9 aa be cd f3 90 be df 36 59 be
       -0.12083643 -0.3334459 -0.28311005 -0.21212338
000290 23 47 79 3e 6e f7 f6 3e d4 7e 22 3e c7 da 89 bd
       0.24343543 0.4823565 0.15868694 -0.067311816
0002a0 0b 31 42 3d 88 ca 18 be 1a dd 6e be 08 be 35 be
       0.047410052 -0.1492101 -0.23326531 -0.17748272
0002b0 8b 01 0f be 8c 2b 31 3e cc bd 7f be 88 77 03 bf
       -0.13965432 0.17301768 -0.24974746 -0.51354265
0002c0 34 d0 85 be f9 b1 cc bd ef 75 7b 3e e0 c0 14 be
       -0.2613541 -0.09994883 0.24556707 -0.14526701
0002d0 3c 93 b8 be 96 31 4f 3d 4f fa 6b 3e 78 d8 82 3e
       -0.3604983 0.0505844 0.23044704 0.25555778
0002e0 66 0f 56 3e 65 d0 82 3e 46 22 31 be 25 e7 81 3e
       0.20904312 0.25549617 -0.1729823 0.25371662
0002f0 80 6d 5b 3e c4 0f d0 be 14 fb 2c be 7a 89 86 be
       0.2142849 -0.40637028 -0.16892654 -0.2627676
000300 a3 0e 95 3e 0b ef 8e 3b d0 0f a1 bc fc 37 95 3e
       0.2911273 0.0043619922 -0.01966086 0.29144275
000310 6e 7d d5 bd 2f b3 22 be 47 a8 81 3d b7 ce 79 3d
       -0.104243144 -0.15888666 0.063309245 0.060988154
000320 c3 80 aa bd 6d d4 06 bd a9 eb d0 be 97 16 7c bd
       -0.083253406 -0.03291743 -0.40804794 -0.06154498
000330 8f 8b ba bc 77 df 86 3e fb c5 fd 3e 61 08 d9 be
       -0.022771625 0.26342365 0.4956511 -0.42389205
000340 00 60 b0 bd a1 a4 f2 bd 51 ab 16 be 8e 0c a6 3e
       -0.086120605 -0.11847807 -0.1471379 0.32431453
000350 d2 87 35 bd 86 e3 98 3e b9 a4 8e 3d dc 51 5b 3e
       -0.04431898 0.29861087 0.06965012 0.21417946
000360 1a 6b c4 be 1f 61 d8 bd 37 f1 ab be 41 dd 52 be
       -0.38362962 -0.105653994 -0.3358247 -0.20592214
000370 d6 2e 4e bd 89 76 c1 be b5 46 ab 3e e2 82 71 be
       -0.050337635 -0.37785748 0.33452383 -0.23585084
000380 a1 57 f2 be 06 87 19 3c 4d 91 a7 be 4c de 4f be
       -0.4733248 0.009370571 -0.32728043 -0.20299643
000390 7d ab f6 3d d2 62 c3 bd f1 df dc 3d ea f5 d7 3d
       0.120444275 -0.09540333 0.10784901 0.10544951
0003a0 15 db b6 be 4a 05 a4 3d 2f 07 00 be f7 75 6e be
       -0.3571402 0.08008821 -0.1250274 -0.23287188
0003b0 b1 af fd 3c 40 d5 3d 3e 7e b4 9a 3d 6b 90 36 3e
       0.030967565 0.1853838 0.075539574 0.17828529
0003c0 66 d5 82 3e cf 4d 79 3d e9 cc d4 3c df 24 06 3d
       0.25553435 0.06086522 0.025976615 0.032750007
0003d0 f1 93 07 3e 00 ec cf bd 0f 62 a1 3c a8 8f 1c 3e
       0.13240029 -0.10152435 0.019700078 0.15289176
0003e0 ea 66 9d 3d 0b ad 57 be 81 5d a3 be 28 44 79 be
       0.07685645 -0.21062104 -0.31907275 -0.24342406
0003f0 c3 67 81 3e 3b 9e b2 be ba 0d 9b 3e 24 ec a2 be
       0.25274476 -0.34886345 0.3028391 -0.31820786

conv_layers.0.weight f4 [16, 1, 3, 3, 3]
000000 c1 a9 13 3e 60 44 f3 3d 41 18 71 3d 86 e2 e0 3d
       0.14420225 0.11878276 0.05886102 0.10980706
000010 ab 51 90 3d 14 09 32 3c cb d9 60 be a2 55 5c be
       0.07046827 0.010866422 -0.21958081 -0.21517041
000020 c9 05 c7 3e ed a2 82 3d 9b 9a 3c 3e 4d ca a3 3e
       0.388716 0.06378732 0.18418352 0.3199028
000030 88 64 c9 bd a7 8c 25 3d 2a 47 d7 bd 3f 8f b0 3d
       -0.09833628 0.04041734 -0.1051162 0.08621072
000040 b2 db 62 3e b0 a2 39 3e 98 1a 24 3e ea 1c 51 3d
       0.2215412 0.18128467 0.1602577 0.051052965
000050 5d c5 ae 3d 9f 14 a5 bd b5 be 10 3c 62 a7 a1 3d
       0.08533738 -0.08060574 0.008834531 0.07893254
000060 57 27 3a be cf 68 40 be b4 6c a1 3d 5d cc 81 be
       -0.1817907 -0.18789981 0.078820616 -0.2535123
000070 51 95 a4 bd 3b 7d c4 be 5e fb f7 3d 9f d7 05 bd
       -0.08036292 -0.38376793 0.12108491 -0.032676335
000080 eb 10 9f 3d 2e 7a 85 be 0d 00 fb bd 90 c8 05 bf
       0.07766899 -0.26069778 -0.12255869 -0.5225916
000090 ac 20 b4 3d da 30 dc 3d ee cd 66 3d 44 e3 30 be
       0.08795294 0.10751505 0.056348734 -0.17274195
0000a0 81 d2 cd bd 43 5d 0f be 0a 5f cf bc 43 b6 33 bd
       -0.10049916 -0.1400042 -0.025313873 -0.04387499
0000b0 dc 63 c8 3d ba 5a 98 bd 04 d4 f5 3d 17 4d ed bd
       0.09784672 -0.0743918 0.120033294 -0.11586969
0000c0 60 d3 81 3a de 35 ec 3d 09 38 8f be 59 73 6c 3d
       0.0009904914 0.11533712 -0.2797244 0.05772719
0000d0 d6 3c 89 bc e8 c8 29 3d 2c db 94 3d 58 8b c8 bd
       -0.016752642 0.041451365 0.07268366 -0.09792203
0000e0 43 5c 08 be aa b8 6d 3d 17 d9 0f 3e 34 91 3d be
       -0.13316445 0.058037437 0.14047657 -0.18512422
0000f0 54 3d 1c bd fa 68 41 be 1e 8d b7 3d fa 95 03 3e
       -0.038144425 -0.18887702 0.08962463 0.1285018
000100 60 36 1c 3d 77 e1 3a bc f1 7c 35 be ba 90 27 be
       0.038137794 -0.011406294 -0.17723443 -0.16363803
000110 8d 38 94 3d 21 ba 0c 3e 3a bd 9e be 72 d3 bb 3d
       0.07237349 0.13742878 -0.31003743 0.09171189
000120 18 e8 04 3e ca 89 82 3e 36 70 6b be 0a 21 83 3d
       0.12979162 0.2549575 -0.22992024 0.06402786
000130 77 16 16 bd 22 7e 97 bd 13 d4 0e 3e 98 dd 20 be
       -0.036642518 -0.07397105 0.13948087 -0.15709531
000140 08 2e 9b 3c 6a fa cb 3d 58 76 9c 3d 1b dd 0a bd
       0.018942848 0.09959872 0.0763976 -0.03390227
000150 cb e1 04 bd 93 e2 68 3d 70 68 4b bc eb b6 5f 3d
       -0.032441895 0.056856703 -0.012415037 0.054617804
000160 71 9d 85 3d a8 b9 9c be b1 5c 48 be 29 e5 5f be
       0.0652417 -0.30610394 -0.19566609 -0.21864761
000170 0b 9c c3 bd d4 20 61 bd ba 73 15 3e 69 22 07 bc
       -0.09551247 -0.054962948 0.14594927 -0.00824795
000180 81 86 de bc 51 a0 99 3d fd 18 b4 bd 4a 00 52 3e
       -0.027163746 0.07501281 -0.08793829 0.20507923
000190 21 5f 23 be 46 40 e7 bd 05 5e 11 bc b4 1c 31 be
       -0.15954258 -0.11291556 -0.008872514 -0.17296106
0001a0 c4 c6 6f be 8b 6b 40 be 71 89 fe 3d 85 9c cb bd
       -0.23415667 -0.18791024 0.124285586 -0.09941963
0001b0 3b c6 b0 bc d0 36 6a 3d 2b 67 09 3e 3e 91 f2 3d
       -0.021578899 0.05718118 0.13418262 0.11844109
0001c0 5c de 0b 3d 7e a5 6f 3d 66 b8 e4 3d bb fd 5e be
       0.034147605 0.058507435 0.11167984 -0.21776478
0001d0 31 38 08 3e 26 43 ae 3e 89 8e aa 3d bd b7 72 bd
       0.13302685 0.34035605 0.08327968 -0.059257258
0001e0 ea 92 ba 3d 29 5e c6 bd 95 8c 36 be 25 b4 d1 bd
       0.09110053 -0.096859284 -0.17827065 -0.10239438
0001f0 cc f8 36 bd 28 74 87 3c 12 2f 1b be 0c f6 b9 3c
       -0.044670865 0.01653488 -0.15154675 0.022700332
000200 de db eb bd 44 63 23 be 44 cb 89 bd 67 13 85 3d
       -0.11516546 -0.15955836 -0.06728223 0.06497841
000210 5d e1 2b 3e 74 9a 94 bd 9f 12 9f 3e f0 8a 49 3e
       0.16785188 -0.07256022 0.31068894 0.19681907
000220 69 70 89 3d c0 7b eb 3d fb bb 3c 3c 75 ec a6 3d
       0.06710894 0.11498213 0.011519427 0.08150569
000230 00 5c d1 bc aa bc 2a be c8 2e a4 3b 5e 2a dd bd
       -0.025556564 -0.16673532 0.0050104596 -0.107990965
000240 46 0e 25 be f6 8c b9 3d 0d de e2 bd e6 77 04 3e
       -0.16118726 0.09060089 -0.11077509 0.12936363
000250 44 1a fe 3d c1 a0 32 3e 4a 8a 2f bd 9c 0f 38 3d
       0.124073535 0.17444135 -0.042856492 0.04493676
000260 12 e2 59 bd 73 74 8b be 20 99 36 3d 5d c5 0e be
       -0.053194113 -0.2723728 0.044579625 -0.13942476
000270 d3 41 11 3d 53 a1 ca 3c 9f 3c a3 be c7 eb 02 be
       0.035463165 0.024735129 -0.31882188 -0.12785254
000280 b5 dd 59 3e 1a 2f c9 bd 75 e4 c5 be 55 f2 42 be
       0.21275981 -0.09823437 -0.3865086 -0.19037755
000290 7f 11 69 3e ec 24 94 be 91 94 af bd 83 02 04 be
       0.2276058 -0.2893442 -0.08573259 -0.12891583
0002a0 96 fe 68 be 1b 28 4f be 51 04 3c bc 34 2a 20 3e
       -0.22753367 -0.20230143 -0.0114756385 0.15641099
0002b0 5c 9e e8 bc 6f 2b a2 3d c8 83 4d be e9 2e 9f 3d
       -0.028395824 0.079184406 -0.20069802 0.07772619
0002c0 7c 4e 0e 3a 3a 6d e8 3c b9 16 5f bd 57 18 30 3e
       0.0005428565 0.028372396 -0.05446503 0.17196785
0002d0 20 50 5b be 13 b8 7c be 95 e0 87 be 31 fd e8 bd
       -0.21417284 -0.24679594 -0.2653853 -0.113764174
0002e0 a4 72 39 3e e8 fa e3 bc b0 89 98 bd 29 f4 b2 bd
       0.18110138 -0.027829602 -0.07448137 -0.08737976
0002f0 8b 64 0b bd 86 64 06 3d 73 85 4a 3d ca a8 8e 3e
       -0.034031432 0.03281071 0.049443673 0.2786315
000300 1b c4 c7 3d e1 cb c5 bd d9 f0 06 be cd d5 09 3e
       0.09754201 -0.096580274 -0.13177814 0.13460465
000310 c0 28 c1 bd c1 9c 57 3c 0d 2b f2 bd 5b c7 ca bd
       -0.094316006 0.013159932 -0.118246175 -0.09901305
000320 d0 86 08 3e 50 4e 28 bd 8d 4a 38 bd 60 91 8f 3d
       0.13332677 -0.04109031 -0.044992972 0.0701015
000330 63 a8 e9 3d 4e 2b 0f 3d f5 8a 0d 3e de 90 16 be
       0.1140907 0.034953408 0.13822539 -0.147037
000340 e9 ac c8 bd c9 97 4e bd 72 04 27 3e 78 47 4b be
       -0.09798605 -0.050437722 0.1631029 -0.19851482
000350 7a cf 62 3d 7a 9a a1 be cc 67 9f bd 5c d7 0d 3e
       0.055373646 -0.3156317 -0.077834696 0.13851684
000360 ba 29 17 3e 41 f0 4c 3c 14 58 c7 be 52 bb 10 3e
       0.14762011 0.012508453 -0.38934386 0.14133957
000370 82 6f e7 bd 55 c4 21 be e7 9d 29 be 5e 45 ee 3d
       -0.11300565 -0.15797551 -0.16564141 0.116343245
000380 a2 e7 11 3e 47 b5 05 3e 39 71 81 3d 9b b9 8b be
       0.14248517 0.13057433 0.06320424 -0.27290043
000390 dd 01 8b 3d b4 17 0c 3d b3 0c 1e be 6c 42 64 3d
       0.06787465 0.034202293 -0.15434532 0.055727407
0003a0 40 0b 4a 3e 50 1c 3e be 4d 83 e0 bd 05 00 1d 3e
       0.19730854 -0.18565488 -0.10962544 0.15332039
0003b0 61 37 27 be 22 79 21 be cd 09 ab bd 68 c3 93 be
       -0.16329719 -0.15768865 -0.08351479 -0.2886002
0003c0 2e 5a b8 3c 75 89 a8 3d 5a a6 30 3e 33 3c 04 be
       0.022503939 0.08229343 0.17250958 -0.12913589
0003d0 3a a4 a2 bd 27 1d ca 3d ac a9 10 be c5 6b bd 3d
       -0.0794148 0.098688416 -0.14127225 0.09249071
0003e0 2e db 9b be 9b 7c 49 3e d0 9d 47 3d 7d 4f ce 3c
       -0.30440658 0.1967644 0.048734486 0.025184387
0003f0 89 44 16 be 5e 57 0f 3d 54 57 b3 bd aa 5b dd 3d
       -0.14674582 0.03499543 -0.08756891 0.10808499

conv_layers.0.bias f4 [16]
000000 82 d9 ad bc ca b9 cb bd 87 83 c5 3c a2 34 92 be
       -0.02122188 -0.09947546 0.024110569 -0.2855578
000010 b6 3a e4 bd 23 29 5e be 7e 67 ba bc b8 c5 81 3e
       -0.11144011 -0.2169538 -0.022754427 0.2534616
000020 f8 0e 36 bd eb e8 be bc b1 d0 88 3e de 8e 1d be
       -0.04444787 -0.023304423 0.2672172 -0.15386531
000030 fa e2 1a 3e 2f c2 5b 3d 6e 33 0a 3b ae 40 ed 3d
       0.15125647 0.053651985 0.0021087783 0.11584602

conv_layers.1.weight f4 [32, 16, 3, 3, 3]
000000 ed 2b 13 bd f2 06 dd bd 62 d1 52 bd 71 c7 88 bc
       -0.035930563 -0.1079234 -0.051469214 -0.016696664
000010 0d 25 b6 bc 6d c0 29 bc 13 ea d5 bb d0 e9 e0 bb
       -0.022234464 -0.010360819 -0.006528148 -0.00686381
000020 3e 15 8f bd 12 13 ae 3d 8e cd bd 3d d9 bd 2c b7
       -0.069864735 0.08499731 0.09267722 -1.0296201e-05
000030 5f 04 a2 bc a9 f6 db bc e5 53 c0 bc 6f 7b c7 bc
       -0.019777475 -0.026851015 -0.023477504 -0.02435085
000040 fd 9d 6a bb 32 05 e9 bc 98 eb 25 3d cc 2d 58 3d
       -0.0035799735 -0.02844486 0.040507883 0.05277805
000050 b1 81 92 bd 40 87 d9 bc 3a b5 e8 3a 30 a0 e4 bc
       -0.07153643 -0.02655375 0.0017754205 -0.027908415
000060 80 75 e2 3c 7e c8 17 3d 23 45 88 3d 5e 2d 9a bd
       0.027643919 0.03705644 0.06653812 -0.07528184
000070 33 5a 21 be 16 df cd bd 42 45 ff bd aa 0e 33 bd
       -0.15757065 -0.10052316 -0.12464382 -0.043715157
000080 3b 87 6b bc 4a 2b 80 bd e2 4f 18 bd 64 13 88 bd
       -0.014375503 -0.06258257 -0.037185557 -0.066443235
000090 fc 27 67 3d 25 d2 02 3e 99 7a 45 3d 97 d7 ba 3d
       0.056434616 0.12775476 0.04821262 0.09123152
0000a0 3c db 8b 3c 1f 0b f1 bd 41 5f 49 bd af 52 70 bd
       0.017072313 -0.11769699 -0.049163107 -0.058672603
0000b0 56 a4 33 be d1 52 fc 3c ac d2 f8 3d 3c 35 29 bd
       -0.17543158 0.030801209 0.121495575 -0.041310534
0000c0 19 a9 8e bc 5a 38 62 bc 67 43 c6 bd c9 f3 1b 3c
       -0.017414616 -0.013807381 -0.09680825 0.009518572
0000d0 5f fa f0 bb 37 3f 82 bc f6 b2 bd 3c 4e 5a 79 bc
       -0.0073540653 -0.015899284 0.023156624 -0.015219284
0000e0 16 1b 03 bd a4 6f 9f b9 92 a8 b8 3c f2 86 52 3b
       -0.032008253 -0.00030410022 0.022541318 0.003212389
0000f0 5a c3 fb bb f5 4d ac 3d 85 35 cb bb 6e c3 a1 3c
       -0.0076832 0.084133066 -0.0062014484 0.019746508
000100 f3 f6 5f 3d 95 c9 b9 bc 44 fd 9a 3d 54 d0 b5 3c
       0.05467887 -0.02267913 0.07567838 0.022194065
000110 17 2b 8b 3d c7 a7 89 bd 27 6e 21 bb b6 cd bb bc
       0.06795328 -0.06721454 -0.0024632306 -0.022925239
000120 c9 cc cc bc 1f c3 e8 3d 0b 36 20 3d cb ba 12 be
       -0.024999993 0.113653414 0.03911404 -0.14329068
000130 f1 c9 89 3c 45 44 cf 3d 74 f5 a3 3d 40 c7 d3 3c
       0.016819926 0.10120443 0.08005801 0.025851846
000140 91 37 69 bd 81 20 88 3d b8 90 a9 bd 0f ee 73 3d
       -0.056937758 0.06646825 -0.08279556 0.059553202
000150 f2 e7 09 bd 52 1d c3 bd fe cf 54 3d 3f d0 15 bc
       -0.033668466 -0.09527077 0.05195617 -0.009143888
000160 b3 8a b2 bd 66 19 33 bc 77 d1 7d be c8 15 43 be
       -0.08717861 -0.010931348 -0.24786936 -0.19051278
000170 b5 f7 21 3d 34 97 2c bd 42 cd 23 be af 1d b1 bc
       0.039542872 -0.042136386 -0.15996268 -0.0216206
000180 47 5d fe 3b 59 a4 a6 3c de e1 93 bc 78 35 2b be
       0.0077625844 0.020342039 -0.018052038 -0.16719615
000190 68 f1 9e 39 61 99 44 3d b2 85 93 bd b1 02 72 be
       0.0003031597 0.047997836 -0.07203235 -0.23633839
0001a0 33 59 ac bb 37 14 99 bc a2 61 29 be 6b d8 75 3d
       -0.005259657 -0.018686397 -0.1654115 0.060020845
0001b0 2c 57 9c 3c 91 bc 88 bc 1e 98 e5 bd ce 14 cb 3b
       0.019084536 -0.016691478 -0.11210655 0.0061975485
0001c0 4b 30 97 bc 99 ee 21 bd 4f 66 0b bd 05 bb 39 bb
       -0.018455645 -0.039534185 -0.034033116 -0.0028340232
0001d0 29 c7 85 bd e3 c6 ba 3d 26 2e ad 3c fd cf a0 bd
       -0.065321274 0.09119966 0.02114017 -0.078521706
0001e0 06 e9 21 bb 62 42 50 3d 30 2e d7 3c 0c e6 66 3d
       -0.0024705543 0.050844558 0.026267141 0.056371734
0001f0 af 64 1c bb 52 33 42 3d 63 c4 1e 3d 2f 46 9e 3c
       -0.0023863723 0.047412224 0.038761508 0.019320576
000200 d4 be 33 be dd 30 a6 bb 5d 6d 96 3d 6b 5b 33 bd
       -0.17553264 -0.005071743 0.07345078 -0.043788355
000210 b7 fc 72 3d ba 00 63 3d de 63 07 3d 7a ec 3f 3d
       0.05932304 0.055420615 0.033054225 0.04685638
000220 63 2b 03 bd 51 a2 94 3d f5 71 0f 3d 1e d6 08 be
       -0.0320238 0.07257522 0.035020787 -0.13362929
000230 4f 65 f7 bc 78 73 d9 bd 93 14 a5 3b ef 76 a4 3d
       -0.030199675 -0.10617727 0.005037853 0.08030497
000240 8e ed 5f bb 42 11 02 3e 38 2a 04 bc 66 e6 26 3e
       -0.0034168693 0.12701896 -0.008066706 0.16298828
000250 ad ca 2d bd 0b 09 eb 3b 5c 81 37 3d db 13 ec 3d
       -0.042429615 0.007172709 0.0448011 0.11527225
000260 2a 1a 03 3e a3 b3 dc bd ff 36 94 bc 5a 1b cc bc
       0.1280295 -0.107764505 -0.01809263 -0.024915386
000270 7b 20 07 3c de 96 cd 3b 73 12 9c bb e9 96 ea bc
       0.00824749 0.0062740883 -0.0047629415 -0.028636413
000280 a5 80 a4 3b b9 35 09 bb fd e9 a6 3d 3d de 3a 3d
       0.0050202184 -0.0020936562 0.081500985 0.0456221
000290 d5 cb 11 bd dc 3c c3 bd 8c 87 5e 3b b8 4f cd 3d
       -0.03559478 -0.095330924 0.0033955304 0.10024971
0002a0 b2 b0 f2 bc 96 b6 bc bb 51 97 a4 3b 52 5d 95 be
       -0.02962527 -0.0057590706 0.005022921 -0.2917276
0002b0 aa 82 57 be 2d 31 94 bd 86 7f 6b bd e9 c9 87 be
       -0.21045938 -0.07235942 -0.057494663 -0.26521233
0002c0 eb d7 8f 3c 0d a4 5b 3d 88 9b dd bc 91 a9 bd 3d
       0.017559012 0.053623248 -0.027051702 0.09260858
0002d0 a6 95 aa bd a0 78 9b bd ad 63 8a be 29 8f 62 3a
       -0.083293244 -0.07591367 -0.27029172 0.00086425483
0002e0 bb 5f 9b bd 3a 0e 96 be cc 2f 10 3d a6 fc 0a 3d
       -0.075866185 -0.2930773 0.035201833 0.03393235
0002f0 f1 3e 5f 3d 42 78 d4 3d f0 69 e8 3b a0 da 28 bd
       0.054503385 0.103745 0.007092707 -0.041224122
000300 9e 19 3c bc 04 fe d3 bd c6 98 d3 3d fc ba 59 3b
       -0.011480717 -0.10351184 0.103318736 0.0033223024
000310 b5 de 2d 3d 3f e2 0a 3c 00 be a9 3d cd fb eb 3d
       0.042448718 0.008476793 0.08288193 0.115226366
000320 8b 16 a7 bd 75 56 c9 3c 9b 37 c7 bd 08 75 39 bd
       -0.081585966 0.024577359 -0.09727403 -0.045277625
000330 9b 27 e2 3d 71 91 f9 3a e4 4c d0 bc f0 5e 97 bd
       0.110427104 0.0019040537 -0.02542729 -0.07391155
000340 97 9e e8 bd cb fe 75 bd 61 ce 59 bc 1f d3 ba bb
       -0.113583736 -0.060057443 -0.0132938335 -0.005701437
000350 5d 06 97 bd 9f c9 53 3d f9 3d 22 3e fc f3 c3 3c
       -0.073742606 0.051705953 0.15843953 0.023920052
000360 4c dd 8c 3d 79 b3 b0 3d 5c 28 3f 3c 98 8b 85 3d
       0.068781465 0.08627982 0.011667337 0.06520766
000370 41 96 3f bd bf 12 dc bd 45 d2 b4 3c bf b3 2f 3d
       -0.046774153 -0.10745763 0.02207292 0.04289603
000380 65 b3 11 bc c8 7e 42 3e 8f 95 c3 3d fc 6c fd bd
       -0.008892869 0.18993676 0.095500104 -0.12374303
000390 f4 5a 25 3e e0 0a b7 bd a6 23 f7 bd 30 a2 fc 3c
       0.16147977 -0.08937621 -0.12067346 0.030839056
0003a0 52 b4 6b bd 91 6d 04 bd 85 c0 29 3d 8b 17 3b 3d
       -0.057545014 -0.032331053 0.041443367 0.04567675
0003b0 7b 35 57 bc bc b0 8f 3d 2a 0a 2f bd f3 7f 8b 3d
       -0.013135309 0.07016131 -0.042734303 0.06811514
0003c0 fc 88 85 bc 20 35 21 bc 70 41 dc 3d 58 f5 d3 3c
       -0.01630067 -0.009839326 0.10754669 0.025873825
0003d0 f5 a6 d9 bb 9e cc d2 bd eb 0e 08 3e 53 0e 39 bd
       -0.0066422173 -0.10292934 0.13286941 -0.045179676
0003e0 d3 92 1d 3c eb d5 5e 3d 73 64 4e 3d 6a 81 cb 3c
       0.009617525 0.054403227 0.050388765 0.024841983
0003f0 75 94 71 3c fe be be bc 48 58 73 be 4c ac 31 3c
       0.014744868 -0.023284432 -0.23764145 0.010844301

conv_layers.1.bias f4 [32]
000000 ef 44 7b be 6e 63 9f be d7 07 2f bf cb 03 e3 be
       -0.24538015 -0.31130546 -0.6837134 -0.4433883
000010 d6 94 46 be e2 cf 78 3e ba a5 18 bf da 06 9e be
       -0.19392714 0.24298051 -0.5962788 -0.30864602
000020 82 85 03 be a6 e5 af be 5a 5d eb be 6a 8f b0 be
       -0.12843898 -0.34354895 -0.4596966 -0.34484416
000030 ad 9f 8c be 5a 94 16 bf a6 25 50 be 53 4e b7 be
       -0.27465573 -0.58820117 -0.20326862 -0.35801944
000040 d7 3b 6b be 58 eb 81 be 1d 61 92 be 40 8e fe be
       -0.22972046 -0.25374866 -0.28589717 -0.49717903
000050 59 bd 1f bf a7 ec ed bd 9f 27 97 be 5d 1e 9f be
       -0.62398297 -0.116174035 -0.29522416 -0.31077853
000060 d0 ba 3b be b1 89 c0 be 5a 86 9f 3d c9 80 51 bf
       -0.18332982 -0.3760505 0.077892974 -0.81837136
000070 61 ce 87 3c 39 94 a1 bd 3b 47 02 bf a6 0f 29 be
       0.016577901 -0.07889599 -0.5088994 -0.16509876

conv_layers.2.weight f4 [64, 32, 3, 3, 3]
000000 46 5d 90 3c 50 c8 29 bc 7f 3b 2c bc b8 16 35 bd
       0.017622601 -0.0103627 -0.010512232 -0.04421112
000010 64 5e 70 3d 6f d1 45 3d bb e8 d0 3a 77 b5 e2 bd
       0.058683768 0.048295435 0.00159385 -0.11069768
000020 9f 94 9a 3d 3d ab 2e bc a9 4e 15 3c a2 fa c6 bd
       0.075478785 -0.010660944 0.009112992 -0.09715773
000030 31 70 b5 bb 7c f0 49 3c 98 55 b4 bd 4f f0 c8 3d
       -0.005537056 0.012325402 -0.08805388 0.0981146
000040 92 f0 9d bd 17 87 b6 bd b0 68 01 3d 7d ca 69 bd
       -0.07711901 -0.08912485 0.03159398 -0.057077873
000050 60 af a4 3d 30 6c dd bd 0d 82 a7 bb 5a 36 c3 3d
       0.080412626 -0.10811651 -0.005111939 0.09531851
000060 3c c9 30 be a5 e1 e8 bd 6e 57 f1 3c b4 b8 97 3d
       -0.17264265 -0.11371163 0.029460635 0.07408276
000070 67 ce 52 3d 6a f4 b8 bc 36 aa 36 bd 27 8c 0a bd
       0.051466372 -0.022577483 -0.04459592 -0.033825066
000080 e7 90 94 bd 75 27 6e 3d bf 5b 39 3b 4c d6 09 bd
       -0.072542004 0.058143098 0.0028283445 -0.033651635
000090 23 d4 68 3c 23 71 c6 bc ad 44 52 3c a0 8c 61 bb
       0.014210734 -0.02422387 0.012833756 -0.0034416094
0000a0 dc 8e 2a 3d cc ac 76 3a 44 6e 89 bd 66 4b af 3c
       0.041640148 0.0009409904 -0.067104846 0.021398257
0000b0 5e 6f 2c 3d 39 07 9c 3d 66 f6 c4 3c ce 36 b0 3c
       0.042098396 0.07618565 0.024043273 0.021510508
0000c0 23 ca ee bc 6e 69 aa 3c a2 f8 81 3d 3a 36 1d be
       -0.02914912 0.020802226 0.06346251 -0.15352717
0000d0 01 24 d2 bd 9a 2c b0 3c d9 cb a9 bb 91 20 33 bd
       -0.102607735 0.021505643 -0.0051817712 -0.04373223
0000e0 f4 b8 3e bd 20 8f 25 bd 3c 26 e3 bd 71 51 40 3c
       -0.046563104 -0.040419698 -0.11091277 0.011738167
0000f0 dc 5e 8f 3d 75 ad 81 3d bc 28 80 bd 73 4f a8 3d
       0.07000515 0.063319124 -0.062577695 0.08218279
000100 9c 7a 50 3d 17 fe 80 bd db 12 a6 bc df 85 ce bd
       0.05089818 -0.06298464 -0.020272663 -0.10084128
000110 bf f7 04 bc 64 e2 31 bd b7 16 e4 bc 65 ab a7 bd
       -0.008115708 -0.043428794 -0.027842863 -0.08186988
000120 77 49 a2 bd ef 0b 4b bd e7 af 8b 3d 6e 52 8c bd
       -0.079241686 -0.049571928 0.0682066 -0.0685166
000130 9c 85 91 bd 6b 37 b5 3d d8 ff 1b be e8 9d a5 bb
       -0.07105562 0.08848461 -0.15234315 -0.0050542243
000140 5f d9 31 bd 79 ad e2 bd 6d 79 2d be 44 64 fb 3b
       -0.04342019 -0.110682435 -0.16940852 0.0076718647
000150 e7 c4 8b bd a8 47 12 be 3b 46 91 bc ad 49 cf 3b
       -0.068246655 -0.14285147 -0.017733684 0.0063259215
000160 ac d8 9a bd bd 0d 84 bd 09 14 91 3b c6 87 63 3d
       -0.07560858 -0.06447933 0.004427437 0.055549406
000170 cb 2b 96 3c 4c 75 ed 3b ff 8d ae bc fb e7 40 3d
       0.018331429 0.007246649 -0.021307943 0.047096234
000180 7b 89 5f 3d dd 25 ec 3c 20 43 1b bd e5 12 e6 bb
       0.05457447 0.028826648 -0.037905812 -0.0070212954
000190 f8 10 ec 3c 7c 47 8b bc 95 38 22 3c 6d a6 c8 ba
       0.028816685 -0.01700186 0.0099011855 -0.0015308388
0001a0 3d 93 d8 b9 ca 99 65 3d 85 7d a4 3c 3b 91 a6 3d
       -0.00041308432 0.056054868 0.020079384 0.08133169
0001b0 bf f9 f1 3c 5c 1c 24 3d 67 ed 19 3d 5b 2b f0 bb
       0.029538034 0.040066108 0.03757992 -0.007329387
0001c0 a1 b5 2d 3b a7 04 6c bd ba 10 b3 bd a8 56 8b bd
       0.0026505964 -0.057621624 -0.08743425 -0.06803638
0001d0 70 c0 87 bd 39 74 8f 3d 7a ab 0c 3d 66 0e 3c 3d
       -0.066285014 0.070045896 0.03434322 0.04591217
0001e0 e7 de a7 3d dc e7 be 3d 31 7e fd 3c d8 64 42 bd
       0.08196812 0.093215674 0.030943962 -0.047459453
0001f0 1e 6c 87 bd 53 b6 06 bd 03 64 7d bd 82 85 8f bb
       -0.066124186 -0.03288872 -0.061862957 -0.004379929
000200 42 2e 90 3c 72 2f 64 bd a4 36 38 3d 8d 67 07 bd
       0.017600182 -0.05570931 0.044973984 -0.033057738
000210 a2 38 16 be b5 d3 70 bd 3a 6c 0d bd 59 55 54 bd
       -0.14670041 -0.05879565 -0.03452704 -0.051839206
000220 e0 b1 89 bd cb dc 1d bd ce 09 ad bd 48 99 cc bc
       -0.0672338 -0.038540643 -0.08449136 -0.024975434
000230 0c b5 21 bd 3a 3b aa bd ca e5 43 bd 96 bc 15 3d
       -0.0394793 -0.08312078 -0.047826566 0.036556803
000240 e8 d2 98 3c 76 9b 89 3d db 14 46 3c ce d0 0b 3c
       0.018655255 0.06719105 0.012089933 0.00853367
000250 dd 02 19 3d ed ad ea bb da c3 68 bc 37 f1 3b 3d
       0.037356246 -0.007161847 -0.014206851 0.045884337
000260 34 90 37 ba 63 9d 0c 3d cb 6c 17 39 5a 30 33 3d
       -0.0007002384 0.034329783 0.0001444101 0.043747284
000270 35 f4 40 3c dd ae f2 bc 5e 95 f8 bc 33 2d 35 bc
       0.0117769735 -0.029624397 -0.030344661 -0.01105814
000280 39 ae 64 bd 19 48 a6 bc 31 43 37 3e c0 1d 3d 3e
       -0.055830214 -0.02029805 0.17896725 0.1846838
000290 63 16 0e 3e e2 be 25 3e 23 fc 61 3e 1b c2 51 3e
       0.13875727 0.16186097 0.22068839 0.20484202
0002a0 72 f4 20 3e 08 6a 46 3e e4 7b 4c 3e 88 bc 39 3e
       0.15718248 0.19376385 0.19969136 0.18138325
0002b0 fb 38 23 3e e3 d1 19 3e 3d af 6a 3e 5d f2 5e 3e
       0.15939705 0.15021472 0.2291841 0.21772142
0002c0 e0 d2 51 3e 79 4b 4f 3e c5 87 5d 3e 29 97 78 3e
       0.20490599 0.20243634 0.21633823 0.24276413
0002d0 67 1d 1d 3e 0b e6 14 3e 84 f7 33 3e b0 51 3f 3e
       0.15343247 0.1454088 0.17574888 0.18683505
0002e0 b8 f3 49 3e 72 8b 64 3e 8e 0a 19 3e 4d 85 47 3e
       0.19721878 0.22318819 0.14945433 0.19484444
0002f0 c9 75 68 3e e2 fd 97 bc ac f2 56 bc 37 f3 41 3a
       0.22701181 -0.018553678 -0.013119381 0.00073986076
000300 cd f0 48 3c 62 d2 f7 3b a2 a1 71 3c 25 3b 20 3c
       0.012264443 0.0075629214 0.014748009 0.009779726
000310 f8 18 15 3d a4 52 70 3d 80 b6 35 3d 58 1a f3 3c
       0.036400765 0.058672562 0.0443635 0.029675648
000320 09 4c 91 bc 96 00 8d 3c 2a 66 43 bb a3 dd 1c bd
       -0.017736452 0.017212193 -0.0029815533 -0.038297307
000330 ad 67 31 3d bd 02 af 3c e3 c2 3e 3c 50 12 12 3d
       0.043311764 0.02136361 0.011643144 0.035661995
000340 35 6d 58 3d d4 c4 93 bc cd 18 cc 3c f6 0a d8 3c
       0.052838523 -0.01803819 0.02491417 0.026372414
000350 dd 89 dc bc fb 0d 03 3d fd 3e 51 ba 57 e9 95 bc
       -0.026921207 0.031995755 -0.0007982103 -0.018299742
000360 7f 6a 81 bc 17 3f 23 3c fe 09 9b 3d fc e5 8d bc
       -0.015797852 0.009963772 0.07570265 -0.01732158
000370 55 89 7b 3c 8a db 2f 3d f9 7f 50 bd 5a 16 32 bc
       0.015352567 0.04293398 -0.050903294 -0.010869587
000380 03 c1 43 3b ef 67 e8 bc 3e 4f f1 3b f2 68 3e 3d
       0.0029869683 -0.028369872 0.0073641827 0.046486802
000390 35 43 1e bd 22 42 4a 3d d9 14 03 3d c4 c0 24 bd
       -0.038638312 0.049379475 0.032002304 -0.040222898
0003a0 20 ac c1 3b 0e 6a 08 3d 91 01 d2 3c ed a9 4c 3d
       0.0059104115 0.033304267 0.025635513 0.04996674
0003b0 49 1c 26 3d 1f 5c 70 3d 28 3b 88 3d 48 b3 63 3c
       0.04055432 0.058681604 0.06651908 0.013897724
0003c0 07 95 88 3c 0e f6 a0 b8 f7 1a 67 3b 7c 1e 53 bd
       0.016672624 -7.675226e-05 0.0035263875 -0.051542744
0003d0 1a 97 b0 bd a3 b0 91 3d 60 9f 4c be 6d 94 19 bd
       -0.0862257 0.07113769 -0.19982672 -0.037495065
0003e0 22 51 c2 bb 92 8e 4e be e6 d9 c3 bd c4 9a ec bd
       -0.005930082 -0.20171574 -0.09563045 -0.11552957
0003f0 a3 08 b0 3d 80 38 c2 bd ad 51 1f bd f7 3b c7 3d
       0.08595397 -0.09483433 -0.03889625 0.09728234

conv_layers.2.bias f4 [64]
000000 1f 19 c5 bd c3 2a 5f bd 64 f2 b7 bd fe 55 30 be
       -0.09623932 -0.05448414 -0.08981779 -0.17220303
000010 86 be e7 3c 6f 60 81 3e 99 0e 82 bc e2 c0 11 bb
       0.02828909 0.25268885 -0.015876101 -0.0022240211
000020 96 d9 4b bd a8 a3 90 3e 8a 05 ef 3c 13 7a ac bd
       -0.049768053 0.2824986 0.029177446 -0.08421721
000030 22 97 7d bd 2b 27 57 bc cc 49 25 be 24 76 85 be
       -0.06191171 -0.013131897 -0.16141433 -0.26066697
000040 b0 47 cf 3e 68 eb 86 3c 99 dd 8b 3e a5 6d 91 bd
       0.4048438 0.016469672 0.27317503 -0.07100991
000050 3f 83 5b 3c 79 d9 49 be 3e 90 44 bd 98 37 9e bd
       0.013397991 -0.19711865 -0.047989123 -0.077254474
000060 eb 05 87 be e3 b3 8d bd f3 66 0d 3d 0e ff d9 bd
       -0.26371703 -0.06919076 0.03452201 -0.10644351
000070 bf 8f 28 be 28 3d 86 bc 09 48 99 3c b2 24 99 bc
       -0.16461085 -0.016386583 0.018711107 -0.018694256
000080 5c dc a8 bc 5c 98 3d be 8d 14 a9 bc 67 a0 b6 bd
       -0.020612888 -0.18515152 -0.020639682 -0.08917313
000090 51 15 a6 3d 98 45 b3 bd 1e eb 4d 3e 05 76 f6 bd
       0.081095345 -0.08753508 0.20109221 -0.12034229
0000a0 e9 08 4e 3e 0c 68 25 bd fb ac 33 bd c3 0c 72 bd
       0.20120586 -0.04038243 -0.04386614 -0.0590942
0000b0 15 f3 58 3d ed 5d e1 bc e0 3c e3 3d 4d 73 4d be
       0.052966196 -0.027510608 0.11095595 -0.20063515
0000c0 87 6a 61 3c 9d a1 d5 3a bc 48 63 3c 5d 28 32 bd
       0.013758308 0.0016298775 0.013872322 -0.043495525
0000d0 3c e0 d3 bd c1 f9 47 bd bb a9 78 bc ed 93 4e bd
       -0.10345504 -0.04882217 -0.015177186 -0.05043404
0000e0 93 ad be bd 4e cf 28 ba 12 80 1c be 0b 89 f1 bc
       -0.093104504 -0.0006439582 -0.1528323 -0.029484292
0000f0 06 df e2 3d da 85 8c be dc 73 b5 bc 29 d5 c0 3c
       0.110776946 -0.2744587 -0.022149973 0.023539143

batch_norms.0.weight f4 [16]
000000 d7 6c 5d 3f ff 54 93 3f 9d 2b 66 3f 1b 1a 66 3f
       0.864942 1.1510314 0.899103 0.89883584
000010 33 87 56 3f 61 b3 56 3f ec 74 8a 3f 9d 8a 62 3f
       0.8380005 0.8386746 1.0816932 0.8849276
000020 26 19 81 3f d2 ae 72 3f fa b2 6f 3f f5 e4 6c 3f
       1.00858 0.94798005 0.9363247 0.9253686
000030 af 20 64 3f 03 de 60 3f 5b a8 62 3f b0 cc 68 3f
       0.8911237 0.87838763 0.8853814 0.9093733

batch_norms.0.bias f4 [16]
000000 eb 2a 11 be f5 41 14 3e da 8e 06 be 91 9b 74 3e
       -0.14176528 0.14478286 -0.13140431 0.23887469
000010 03 b5 24 bd 16 df a9 be bb 7a 8d 3e c5 f1 9d 3c
       -0.04021169 -0.33178014 0.27632698 0.019280324
000020 72 8a 9a bd 69 44 fa bc 37 cf 38 3c fe d0 b1 3d
       -0.075459376 -0.030550199 0.011279873 0.0868244
000030 44 7c f6 3d 5d b2 54 3c 5c dd f9 3d 4d a3 a0 bd
       0.120354205 0.012981978 0.12200424 -0.07843647

batch_norms.0.running_mean f4 [16]
000000 d5 9e 81 40 fe e5 3b 3e 85 e9 53 3f 01 4d 73 3e
       4.0506387 0.18349454 0.827782 0.23759843
000010 06 b8 e6 3f 0a 61 7d 3f d9 b8 71 3e c4 e9 aa 3f
       1.802491 0.98976195 0.2360567 1.335259
000020 3f 0c 5a 3f 27 2c 4c 3f 1e 45 84 3f d3 b3 ca 3e
       0.85174936 0.7975487 1.0333593 0.3959032
000030 d3 96 fb 3f 92 ed de 3f 66 1d 98 3f 98 e2 b5 3f
       1.9655403 1.7416251 1.1883972 1.4209776

batch_norms.0.running_var f4 [16]
000000 4e c7 b9 41 76 20 4c 3f 3e 59 5f 40 9d b4 8b 3f
       23.222317 0.7973703 3.489822 1.0914494
000010 6c 9a 0b 41 d8 6d 93 40 b3 5c 7e 3f ef 59 aa 40
       8.725201 4.6071587 0.993602 5.323478
000020 56 f9 80 40 55 a5 56 40 9c aa 75 40 1e 9a c0 3f
       4.0304365 3.353841 3.8385382 1.5047033
000030 e1 4b 0c 41 fa 90 02 41 0f b1 a0 40 a4 70 ce 40
       8.768525 8.160395 5.0216136 6.45125

batch_norms.1.weight f4 [32]
000000 ea b6 78 3f c5 c6 83 3f a5 a1 72 3f 2b cc 77 3f
       0.97154105 1.0295035 0.947779 0.9679591
000010 6c 70 74 3f a2 1d 5f 3f 11 df a1 3f b6 5b 4f 3f
       0.9548404 0.8715459 1.26462 0.80999315
000020 7c f3 87 3f 4b 6d 64 3f 3c 5c 85 3f 85 fc 8e 3f
       1.062118 0.8922927 1.0418773 1.1170813
000030 3f 4e 79 3f 59 15 70 3f 0e 9d 5e 3f 45 a8 7c 3f
       0.9738502 0.93782574 0.86958396 0.9869426
000040 ae c1 87 3f 76 b3 6c 3f bd 0d 60 3f 64 ee 83 3f
       1.0605981 0.92461336 0.8752096 1.0307126
000050 1d 6c 89 3f 17 4f 50 3f 6a cb 83 3f 54 20 70 3f
       1.0736119 0.8137068 1.0296452 0.9379933
000060 13 f8 67 3f ba d8 7f 3f b7 4e 68 3f 33 85 79 3f
       0.90612906 0.99940073 0.9074511 0.9746887
000070 b2 e0 7c 3f 97 2a 9a 3f e6 05 6e 3f cf b9 6d 3f
       0.9878036 1.2044247 0.9297775 0.92861646

batch_norms.1.bias f4 [32]
000000 c1 98 b5 3d 04 e4 d4 3d 4e d3 da 3d 7b 08 8e bd
       0.08867026 0.10395053 0.106848344 -0.06935211
000010 cf cc b3 3d 08 f3 1e 3e a2 52 30 be dc aa 09 3e
       0.087792985 0.15522397 -0.17219022 0.13444084
000020 08 df 8c bd 58 0d eb ba e5 cb 1c bd 6d e8 02 3d
       -0.06878477 -0.0017933054 -0.038280386 0.03195994
000030 29 e2 87 3d 64 f8 e7 3d 36 5f ec 3d 0a fc d4 3d
       0.066349335 0.113266736 0.115415975 0.10399635
000040 44 da a4 3c 0e ce ff 3b f5 2e 04 3e fd 29 44 3d
       0.020123608 0.007806546 0.12908538 0.047891606
000050 b2 82 c5 3d 2c d9 ba 3d d9 3a 23 3c 54 ae 2f 3d
       0.09644069 0.091234535 0.009962761 0.04289086
000060 68 87 10 3e 68 f4 49 bd 29 76 01 3e f1 fd 24 3d
       0.14114153 -0.04930535 0.12642731 0.04028124
000070 f8 09 3d 3e 76 d4 7c bd f7 b2 e7 3d 01 b1 b8 3d
       0.18460834 -0.061726056 0.11313432 0.09018136

batch_norms.1.running_mean f4 [32]
000000 5e 08 61 3e 0b ef 99 3e 8e 2e 82 3e af 44 46 3e
       0.21975848 0.30065188 0.25426143 0.19362138
000010 ca 75 fd 3e b3 af 0e 40 6e ef 86 3c a9 f7 ab 3e
       0.49503928 2.2294738 0.01647159 0.33587387
000020 35 64 23 3f 6d b5 a3 3e 24 50 c5 3e ef aa 5d 3e
       0.6382478 0.31974354 0.38537705 0.21647237
000030 88 b4 c4 3e 53 f3 79 3e 31 5a 2b 3f 47 18 21 3e
       0.38418984 0.24409227 0.66934496 0.15731917
000040 a7 fd 27 3f 94 10 73 3e 57 27 ea 3e fc 86 4a 3e
       0.6562142 0.23736793 0.4573314 0.19778055
000050 02 2e 12 3e 34 1d 20 3f 80 64 58 3e 64 d9 ab 3e
       0.14275363 0.6254456 0.21132088 0.33564293
000060 a9 24 17 3f 0e 27 53 3e b5 ee 0b 3f c2 77 f6 3d
       0.59040314 0.20620367 0.54661113 0.12034561
000070 3c 76 43 3f 78 52 3a 3f f4 14 6e 3e fc a4 2a 3f
       0.76352286 0.7278209 0.2325018 0.66657996

batch_norms.1.running_var f4 [32]
000000 59 09 ed 3e e5 38 5b 3f 32 99 fa 3e a7 c2 d1 3e
       0.46296194 0.8563369 0.48945004 0.4096882
000010 9e d6 92 3f c3 79 9a 40 50 76 84 3e 76 40 85 3f
       1.1471746 4.8273635 0.25871515 1.0410297
000020 88 72 0b 40 1f fc 23 3f 92 fa 64 3f 5e 8e 3c 3f
       2.1788654 0.6405658 0.8944484 0.73654735
000030 38 55 67 3f 06 d7 bc 3e 22 a1 3b 40 f8 2f ac 3e
       0.9036441 0.368828 2.9317098 0.33630347
000040 cc 47 02 40 ba 80 1f 3f 85 7a a9 3f 85 13 c3 3e
       2.0356321 0.62305796 1.3240515 0.3810083
000050 a7 2d ba 3e 03 d9 bc 3f d0 83 22 3f 6a 61 5c 3f
       0.36362955 1.4753727 0.6348238 0.8608614
000060 bf cc f1 3f 2f bc f4 3e de fb b2 3f 97 cb 6e 3e
       1.8890609 0.47799823 1.3983114 0.23319851
000070 c7 5a 68 3f 86 9d 77 40 17 73 f0 3e f7 00 d6 3f
       0.90763515 3.8689895 0.46962807 1.6719044

batch_norms.2.weight f4 [64]
000000 bd 8d 47 3f 48 b1 42 3f 03 de 4b 3f 7e 75 60 3f
       0.7795065 0.7605176 0.7963564 0.8767928
000010 f9 d6 31 3f 73 a5 12 3f 34 ec 27 3f fa e2 5d 3f
       0.6946865 0.57283705 0.6559479 0.86674464
000020 e8 bd 5d 3f 3a 63 21 3f 81 54 53 3f 01 1c 3d 3f
       0.866179 0.6304203 0.8255082 0.73870856
000030 fe 72 52 3f 3c 4a 4e 3f 06 65 45 3f a8 d3 51 3f
       0.82206714 0.8058202 0.77107275 0.81963587
000040 51 e5 25 3f e6 c2 0a 3f 4c 96 29 3f 8f 77 50 3f
       0.64803034 0.5420364 0.6624496 0.8143243
000050 76 15 3b 3f 60 9e 57 3f 4a 0a 28 3f 79 c4 47 3f
       0.7307962 0.84226036 0.656407 0.7803417
000060 67 04 30 3f cc d6 48 3f 70 bf 47 3f f2 7c 4f 3f
       0.6875672 0.78452754 0.78026485 0.81050026
000070 f3 c1 0c 3f 7a 9b 32 3f 6b eb 46 3f 17 54 2f 3f
       0.54983443 0.6976849 0.7770297 0.68487686
000080 03 25 26 3f bf 5f 59 3f 85 ff 4d 3f 66 dd 56 3f
       0.64900225 0.8491172 0.80468017 0.8393158
000090 77 89 1c 3f e7 55 06 3f 2f a4 09 3f 4d 09 21 3f
       0.61147255 0.52474827 0.5376615 0.62904817
0000a0 7a ac 09 3e fd f5 11 3f 0d 16 45 3f 30 ff 61 3f
       0.13444701 0.57015973 0.7698677 0.8828001
0000b0 6c 3b 1b 3f 4f 81 4f 3f 67 07 34 3f 7e bc 5f 3f
       0.60637546 0.81056684 0.70323795 0.8739699
0000c0 c0 7c 4f 3f 23 5f 1c 3f e0 d0 26 3f b9 34 4f 3f
       0.8104973 0.6108267 0.6516247 0.80939823
0000d0 89 84 58 3f 9a 75 2a 3f 19 24 43 3f 27 a0 50 3f
       0.8457723 0.66585696 0.76226956 0.81494373
0000e0 59 62 54 3f 86 a4 45 3f df 62 31 3f 04 d5 17 3f
       0.82962567 0.7720417 0.6929149 0.5930941
0000f0 6c 41 39 3f 7d ce 4c 3f 95 d9 40 3f 80 b2 30 3f
       0.7236545 0.80002576 0.75332004 0.6902237

batch_norms.2.bias f4 [64]
000000 b1 55 a1 3d 11 ff aa 3d 80 fa 6e 3e 5a bf d7 3d
       0.078776725 0.08349431 0.23337746 0.10534544
000010 b7 2a 9b 3e 71 a0 71 3d 16 69 8d 3d af 7a 1f 3e
       0.30306026 0.0589909 0.06904809 0.15574144
000020 de b0 fb 3d 91 10 b6 3d b3 76 56 3e 5d 43 1e 3e
       0.12289594 0.088898785 0.20943718 0.15455385
000030 a0 7c 0b 3e 25 c3 f0 3d c0 0f 9a 3d 77 8d f8 3d
       0.1362176 0.11755971 0.07522535 0.12136357
000040 8f 9c be be 79 11 54 3d c7 5b 78 3d 60 1e ef 3d
       -0.3722882 0.051774476 0.0606344 0.116757154
000050 b7 34 c0 3e fc d8 c6 3d 8b 2b 88 3d 54 0c b2 3d
       0.37540218 0.09709355 0.0664893 0.08693758
000060 bb 4c 79 3d e3 ea 25 3e f3 f1 af 3d 48 a5 e3 3d
       0.06086419 0.16202883 0.0859107 0.11115509
000070 1c 50 60 3d 25 59 8c 3d 82 68 bc 3d ca 7c 89 3d
       0.0547639 0.068529405 0.09199621 0.06713255
000080 c5 2b 78 3d e5 45 b3 3d 08 85 7d 3e fa 03 d2 3d
       0.060588617 0.08753566 0.24757779 0.10254665
000090 10 25 7b 3d 6e e0 79 3d 53 aa 83 3d 8d 72 6c 3d
       0.061314642 0.06100505 0.06428971 0.05772643
0000a0 14 05 31 bc 83 12 69 3d 93 25 93 3d 0b 71 b0 3d
       -0.010804433 0.05690242 0.07184901 0.08615311
0000b0 48 be 8e 3d 90 5d 6d 3e 12 22 9c 3d 6d 3f 49 3c
       0.06969887 0.23180223 0.07623686 0.012283188
0000c0 31 7b 30 3e 13 57 66 3d 10 06 9a 3d 87 b4 19 3e
       0.17234494 0.056235384 0.075206876 0.15010272
0000d0 cc 2c e8 3d ab 83 88 3d 3f 0d bc 3d 47 0b e6 3d
       0.11336669 0.06665739 0.09182214 0.1123262
0000e0 bb ff b6 3d e4 31 a3 3c d3 5b 98 3d f4 70 8b 3d
       0.089354955 0.01992125 0.07439389 0.068086535
0000f0 af 2c 9a 3d e8 f0 eb 3d 0c 3b d4 3d 79 9f 97 3d
       0.07528054 0.115205586 0.10362825 0.07403464

batch_norms.2.running_mean f4 [64]
000000 6a ed 0e 3f 1d 58 d4 3e 06 4f 97 3f 1a bd 93 3e
       0.55831015 0.41473475 1.1820991 0.2885521
000010 53 c7 e1 3f f3 50 2a 3f 08 f0 0a 3f ce d4 3b 3f
       1.7638954 0.6652977 0.5427251 0.7337159
000020 80 8a 0f 3f b5 0c 31 3f 25 a6 a5 3f 90 cb 29 3f
       0.5607071 0.69160014 1.2941328 0.66326237
000030 31 92 11 3f c1 89 13 3f 14 23 1d 3f 29 67 ed 3f
       0.56863695 0.5763207 0.6138165 1.8547107
000040 87 55 9e 40 9d a4 2a 3f 02 6a 0e 3f 3e bb 0d 3f
       4.9479403 0.6665743 0.55630505 0.55363834
000050 23 51 e3 3f ce 35 f0 3e c9 22 e6 3e 9e 4b a9 3e
       1.7759136 0.4691605 0.44948414 0.33065504
000060 4a b5 c9 3e d9 23 c7 3f 56 a3 cb 3e 41 00 ea 3e
       0.39396125 1.5557815 0.39773053 0.4570332
000070 82 75 43 3f 21 d5 2f 3f 93 2f de 3e f6 21 dc 3e
       0.7635118 0.68684584 0.4339567 0.4299466
000080 0f 4b 1d 3f 93 60 8f 3e d5 e0 c0 3f 32 7b cf 3e
       0.61442655 0.28003368 1.5068613 0.40523678
000090 3f 1d e2 3e b9 c2 0c 3f 32 d2 05 3f 54 5d e0 3e
       0.44162938 0.54984623 0.5227386 0.43821204
0000a0 4d 87 3e 3f 15 70 0b 3f 58 90 d2 3e 1d 01 30 3f
       0.744252 0.544679 0.4112575 0.687517
0000b0 bd 15 49 3f 54 22 a3 3f 49 98 ea 3e 6f 3a 9e 3e
       0.78548795 1.2744851 0.4581931 0.30903956
0000c0 37 78 ae 3f b9 ea 24 3f ee e7 29 3f 42 26 2d 3f
       1.3630437 0.6442066 0.6636952 0.676365
0000d0 51 b7 e1 3e ef 60 05 3f 9e 6c 25 3f 37 18 b2 3e
       0.44085172 0.52101034 0.6461886 0.347841
0000e0 18 f8 c1 3e e5 59 cd 3e 4b 95 e9 3e 1a 33 55 3f
       0.37884593 0.40107647 0.45621714 0.832811
0000f0 ab eb f6 3e 3a bf 00 3f 8c 57 17 3f 94 dd f4 3e
       0.48226675 0.5029179 0.5911796 0.478253

batch_norms.2.running_var f4 [64]
000000 41 0e e1 41 62 3a 4d 41 44 71 e8 40 9a b2 c3 40
       28.13196 12.826754 7.2638264 6.115552
000010 33 c6 c2 40 ae b0 ee 41 6d d0 b9 41 5b a7 45 41
       6.0866942 29.83627 23.22677 12.353358
000020 88 37 1a 41 5e fb 9c 41 0e 36 3a 41 3d a6 20 41
       9.638557 19.622738 11.638197 10.0405855
000030 df 31 11 41 3c 0c 33 41 42 b1 07 42 b8 1d d2 42
       9.074676 11.190487 33.923103 105.058044
000040 bd ca 21 42 4d 54 e1 41 d4 c7 f4 41 6b 3e 84 41
       40.447987 28.166162 30.597572 16.530478
000050 58 d7 97 40 5d 70 93 41 50 a4 94 41 7e 0d 1a 41
       4.745037 18.429865 18.58023 9.628294
000060 61 6b 98 41 aa 20 ac 41 ec 48 3a 41 84 7e 63 41
       19.052431 21.51595 11.642803 14.218388
000070 ca 8d 0b 42 d1 8b 03 42 0f c6 4a 41 c6 b5 90 41
       34.888466 32.88654 12.673354 18.088757
000080 c2 c2 00 42 dd 4b f6 40 39 89 34 41 ac 45 57 41
       32.190193 7.6967607 11.283502 13.45451
000090 5d 7a 80 41 92 09 a6 41 f7 1d 72 41 e2 df a3 41
       16.059748 20.754673 15.132316 20.484318
0000a0 9e f4 64 41 77 4f b1 41 11 29 7d 41 6b 2f 5e 41
       14.309721 22.163801 15.822526 13.886577
0000b0 1a d6 13 42 be 2a 21 41 ea db 87 41 7e e9 68 41
       36.959084 10.072935 16.98238 14.557005
0000c0 67 56 9a 41 c3 28 0e 42 f5 cc d6 41 89 d5 13 41
       19.292189 35.539806 26.850077 9.239633
0000d0 14 de 02 41 7f 1d bf 41 1c c9 ce 41 62 bd a0 40
       8.179218 23.889402 25.848198 5.023118
0000e0 15 8d 2d 41 c7 c9 5b 41 e3 51 7f 41 f0 7d 08 42
       10.846944 13.736762 15.957492 34.122986
0000f0 27 8d 8f 41 49 78 78 41 74 02 5e 41 2f d3 8a 41
       17.943922 15.5293665 13.875599 17.353117
